Model: "sequential"
_________________________________________________________________
Layer (type)                 Output Shape              Param #   
=================================================================
sequential_1 (Sequential)    (None, 16, 16, 64)        1792      
_________________________________________________________________
sequential_2 (Sequential)    (None, 8, 8, 128)         73856     
_________________________________________________________________
sequential_3 (Sequential)    (None, 4, 4, 256)         885248    
_________________________________________________________________
sequential_4 (Sequential)    (None, 2, 2, 512)         3539968   
_________________________________________________________________
sequential_5 (Sequential)    (None, 1, 1, 512)         4719616   
_________________________________________________________________
sequential_6 (Sequential)    (None, 10)                530442    
=================================================================
Total params: 9,750,922
Trainable params: 9,750,922
Non-trainable params: 0
_________________________________________________________________
Downloading data from https://www.cs.toronto.edu/~kriz/cifar-10-python.tar.gz
     8192/170498071 [..............................] - ETA: 13:10
…
